Machine Learning/Neural Network Learning/Part3/best_model.pth (torch, 974372 bytes, 8 tensors)

input_layer.weight f4 [256, 784]
0	0xbcf45494	-0.029825486
1	0x3ca1fd57	0.019774122
2	0x3db4777f	0.088118546
3	0xbdc5160b	-0.09623345
4	0xbdc8f093	-0.09811511
5	0xbdf979b9	-0.1218142
6	0xbd6e1880	-0.058128834
7	0x3dce044c	0.10059413
8	0x3e05a4f8	0.13051212
9	0x3d88f8ac	0.066880554
10	0x3da99c93	0.08281817
11	0x3de68eb7	0.112576894
12	0xbda612af	-0.08109032
13	0xbd94aeb4	-0.072598845
14	0xbe094885	-0.1340657
15	0xbdd4eb70	-0.10396469
16	0x3d18cc07	0.03730395
17	0x3d2a23dd	0.04153811
18	0x3dcc601b	0.09979268
19	0x3d8d99e2	0.069141164
20	0x3d768b8a	0.06019167
21	0xbe5a8c7e	-0.21342656
22	0xbdacde8b	-0.08440884
23	0xbe04b495	-0.12959512
24	0xbda366d4	-0.07978597
25	0xbc050628	-0.008119144
26	0xbd646271	-0.055757944
27	0x3c78f389	0.015194782
28	0xbd8fbd90	-0.07018578
29	0xbd8d930c	-0.069128126
30	0xbd7674e2	-0.060170062
31	0xbdd3edf3	-0.103481196
32	0xbe015926	-0.12631664
33	0xbb84b4a4	-0.0040498544
34	0x3e054263	0.13013606
35	0x3dfd0080	0.12353611
36	0x3da95912	0.08268942
37	0x3d8790c0	0.06619406
38	0x3d974c76	0.07387631
39	0x3ca308a7	0.019901587
40	0xbcd00d85	-0.025397072
41	0xbd45246d	-0.04813044
42	0xbd3bee6b	-0.04588167
43	0xbda9da7c	-0.08293626
44	0xbd9fc090	-0.078004
45	0x3cadd8f8	0.021221623
46	0x3db38557	0.08765667
47	0x3dbb3be2	0.09142281
48	0x3dfe5674	0.124188334
49	0x3d50eabb	0.051005106
50	0xbd7ffe7a	-0.062498547
51	0xbd4963a4	-0.04916729
52	0xbda1f79e	-0.07908557
53	0xbcd6bf3b	-0.026214233
54	0xbd77e1ed	-0.060518194
55	0xbc55ba16	-0.013044855
56	0xbd91b5f9	-0.07114787
57	0xbdbe5077	-0.09292691
58	0xbdfc1704	-0.123090774
59	0xbd9bf60c	-0.07615289
60	0x3ca079b1	0.019589277
61	0x3db4467e	0.08802508
62	0x3de0710b	0.10959061
63	0x3d87fb27	0.066397004
64	0x3d9bce0c	0.0760766
65	0x3cf1949c	0.029489808
66	0x391d924d	0.00015027188
67	0xbd86a5fb	-0.06574627
68	0xbdb5eb17	-0.088827305
69	0xbdc11fcd	-0.09429894
70	0xbd943983	-0.07237532
71	0xbdca073f	-0.09864663
72	0xbd650e23	-0.055921685
73	0xbd1f0c3c	-0.038830027
74	0xbb977604	-0.004622223
75	0x3b8f5221	0.004373804
76	0x3d8d8b6f	0.069113605
77	0x3dbcf717	0.09226816
78	0x3dee7223	0.116428636
79	0xbd7d8e2c	-0.061903164
80	0xbdaaea64	-0.08345488
81	0xbc96bde7	-0.0184011
82	0xbd6b6fbd	-0.05747961
83	0xbd643193	-0.05571134
84	0xbdfab187	-0.12240892
85	0xbdd34c0f	-0.103172414
86	0xbda8c8e0	-0.08241439
87	0xbda4a2c6	-0.08038859
88	0x3da6008d	0.08105574
89	0x3da284f9	0.07935519
90	0x3df40c79	0.119164415
91	0x3d902caf	0.07039773
92	0xbd6620a2	-0.056183465
93	0xbc73ba51	-0.014875964
94	0xbcaee411	-0.021348985
95	0xbce37ffd	-0.02777099
96	0xbcf891cc	-0.030342959
97	0xbdb379a5	-0.08763436
98	0xbd853be5	-0.065055646
99	0xbdd440bb	-0.10363909
100	0xbd8673a9	-0.06565029
101	0xbd96b98f	-0.07359611
102	0xbd38f349	-0.04515389
103	0xbd3325cb	-0.043737214
104	0xbcde326b	-0.02712365
105	0x3dea64d4	0.11445013
106	0x3da9440e	0.082649335
107	0x3d9d40f6	0.07678406
108	0xbd275b21	-0.04085839
109	0xbd4dad52	-0.05021412
110	0xbc9abef6	-0.018889885
111	0xbd6d7cf4	-0.057980493
112	0xbdc1ac81	-0.09456731
113	0xbd9ebc8d	-0.07750807
114	0xbdd9dcb6	-0.106378004
115	0xbd3a8b4e	-0.045543008
116	0x3dd3ba63	0.10338285
117	0x3dee9dba	0.11651178
118	0x3d7c0c71	0.061535303
119	0xbb9fd473	-0.004877621
120	0xbd5f3d50	-0.05450183
121	0xbcb30435	-0.021852592
122	0xbd80a7d4	-0.06282011
123	0xbdc38d57	-0.09548443
124	0xbd753ed0	-0.059874356
125	0xbd3c3be8	-0.04595557
126	0xbd3e0559	-0.04639182
127	0xbd28c3b1	-0.04120225
128	0xbdb69adf	-0.08916258
129	0xbd813b60	-0.06310153
130	0xbbc69335	-0.006060029
131	0xbd4f1f28	-0.050566822
132	0xbbfcfab1	-0.0077203144
133	0x3d739ff6	0.059478723
134	0x3d79f4a9	0.06102434
135	0x3daa9bcb	0.083304964
136	0xbcbaed80	-0.022818327
137	0xbc78aaa0	-0.015177399
138	0xbd75daee	-0.06002324
139	0xbc988283	-0.01861692
140	0xbdf60660	-0.12012935
141	0xbdb1f4f8	-0.08689302
142	0xbe01e874	-0.1268633
143	0xbd95a64b	-0.073071085
144	0x3d4d3615	0.050100405
145	0x3d619b64	0.055079833
146	0x3d025be9	0.031825934
147	0xbcec6e66	-0.028861236
148	0xbd12eb78	-0.03586909
149	0xbcd60bad	-0.026128614
150	0xbd578147	-0.052613523
151	0xbd5d095a	-0.053963996
152	0xbdbfc6a7	-0.09364062
153	0xbd7af0d7	-0.06126484
154	0xbd32b7dd	-0.043632377
155	0xbd6b4b56	-0.057444893
156	0xbd2a9a61	-0.041651133
157	0xbd26b673	-0.04070134
158	0x3d5b9856	0.053612076
159	0xbcafd7e1	-0.021465244
160	0xbdb27d82	-0.08715345
161	0x3dbbeee5	0.09176425
162	0x3d8f5c99	0.070000835
163	0x3d494fe0	0.04914844
164	0xbd841d37	-0.06450885
165	0xbde49fbf	-0.11163282
166	0xbd9bfd68	-0.07616693
167	0xbd62d94e	-0.05538302
168	0xbde5d163	-0.11221578
169	0xbdf8d988	-0.12150866
170	0xbdf98378	-0.12183279
171	0xbcf7ad9c	-0.03023415
172	0x3c588963	0.013216349
173	0x3d77ecd4	0.06052859
174	0x3a5c3fb9	0.00084018294
175	0xbd00f705	-0.031485576
176	0xbdad9049	-0.08474786
177	0xbd64fc4a	-0.055904664
178	0xbdec8cdb	-0.115503035
179	0xbdc3af0b	-0.09554871
180	0xbde81ab4	-0.11333218
181	0xbd4dcdf2	-0.050245233
182	0xbe164235	-0.14673693
183	0xbe1e8ed6	-0.15484175
184	0xbddbb515	-0.10727898
185	0x3d0840cd	0.033264924
186	0x3e88092d	0.265695
187	0x3e4996e3	0.19686465
188	0xbc8629e3	-0.016377395
189	0x3ce7d807	0.028301252
190	0x3d905af9	0.07048602
191	0x3d2a009c	0.041504487
192	0xbd8bdc6b	-0.06829151
193	0xbe349f25	-0.17638834
194	0xbe0e99cf	-0.13925861
195	0xbe2801fb	-0.16407005
196	0xbe24e480	-0.16102791
197	0xbddada57	-0.10686176
198	0xbdc3fcb7	-0.09569686
199	0xbd81a810	-0.063308835
200	0x3d4bfea8	0.049803406
201	0x3c3cec16	0.011530897
202	0x3cb60d86	0.022223245
203	0xbdda1d5c	-0.10650131
204	0xbe0835b6	-0.13301739
205	0xbe1849da	-0.14871922
206	0xbdec7883	-0.11546423
207	0xbdeca700	-0.1155529
208	0xbe0336fc	-0.12813944
209	0xbe159586	-0.1460782
210	0xbe66cd0c	-0.22539157
211	0xbe1fde12	-0.15612057
212	0xbde7ab93	-0.11312022
213	0x3df64d1b	0.120264255
214	0x3e9ab6de	0.30217642
215	0x3e956b4a	0.29183418
216	0x3d2ebc4c	0.042660043
217	0xbd1e3a2b	-0.038629692
218	0x3db54e6c	0.088528484
219	0x3d7f3720	0.06230843
220	0xbca99ef3	-0.020705676
221	0xbdeb89ad	-0.11500869
222	0xbe0929ca	-0.13394848
223	0xbd7870b5	-0.06065436
224	0xbe2f672b	-0.17129199
225	0xbe0059e7	-0.12534295
226	0xbdcbbc2e	-0.09948002
227	0xbdc20aed	-0.0947474
228	0x3c7bff03	0.015380624
229	0xbd5e5a98	-0.054285616
230	0xbd975f19	-0.07391185
231	0xbe14d2c1	-0.14533521
232	0xbe1f009b	-0.15527575
233	0xbe0844d3	-0.13307504
234	0xbe37e208	-0.17957318
235	0xbe058d2a	-0.13042131
236	0xbdd04e40	-0.10171175
237	0xbe1c7d90	-0.15282273
238	0xbe236941	-0.1595812
239	0xbe0e6687	-0.13906299
240	0x3c22f237	0.009945444
241	0x3e1a0fcf	0.15045093
242	0x3e52e7b2	0.20596197
243	0x3daf4c85	0.08559517
244	0xbc3c85b0	-0.011506483
245	0xbdbe0b7a	-0.09279533
246	0x3d2635e7	0.04057875
247	0x3d73aaad	0.05948894
248	0x3da0cc20	0.07851434
249	0xbd3ace57	-0.045606937
250	0xbd85c6ba	-0.06532045
251	0x3c67e55a	0.014153803
252	0xbe01739f	-0.12641762
253	0xbe1dcbad	-0.15409727
254	0xbdd203cc	-0.102546304
255	0xbdc9b4c1	-0.09848929

input_layer.bias f4 [256]
0	0x3d0deaa8	0.034647614
1	0x3dce7fee	0.100829944
2	0x3d8a466f	0.067517154
3	0xbd73cc7b	-0.05952118
4	0x3d5c0d88	0.053723842
5	0x3d028ff6	0.031875573
6	0x3a854c6d	0.0010169871
7	0x3ce0c73f	0.027438758
8	0xbe31d2d2	-0.17365578
9	0xbd981828	-0.074264824
10	0x3d9aa8aa	0.07551701
11	0xbdf1d6c2	-0.1180854
12	0x3cff269c	0.03114634
13	0x3e00ca54	0.12577182
14	0x3cd6f8f0	0.02624175
15	0xbde8daf0	-0.11369884
16	0xbcc9ef40	-0.024650216
17	0x3da13b34	0.0787262
18	0xbd5392be	-0.051653616
19	0x3ced166e	0.02894136
20	0xbe0a7f30	-0.1352508
21	0x3d5c4927	0.0537807
22	0xbc678e18	-0.014132999
23	0x3dda0e68	0.10647279
24	0x3c006a2d	0.007837814
25	0x3d942419	0.072334476
26	0x3e3b8923	0.18314032
27	0xbcbeded9	-0.023299621
28	0x3ac9c9cf	0.0015395227
29	0xbe20a0f0	-0.15686393
30	0xbd90191d	-0.0703604
31	0x3d697b20	0.057002187
32	0x3d26fda0	0.04076922
33	0x3e32c4b9	0.17457856
34	0x3c860d7c	0.016363852
35	0x3bfc1b9a	0.00769372
36	0xbdfa10d2	-0.122102395
37	0x3e234f8c	0.15948313
38	0xbe912b0a	-0.2835315
39	0x3d7f1c32	0.06228275
40	0xbd003ddd	-0.031308997
41	0xbdb628e4	-0.08894518
42	0x3e03e6c1	0.12880994
43	0x3e0618f5	0.13095458
44	0xbd34f2f0	-0.044176996
45	0xbc87da8e	-0.016583707
46	0xbdf19179	-0.11795325
47	0xbb8108a1	-0.003937796
48	0x3e5d1155	0.21588643
49	0xbec8c14f	-0.39209983
50	0x3c9fc5fa	0.019503582
51	0x3ca49067	0.020088388
52	0xb9ebb45c	-0.0004495707
53	0x3d1953dd	0.037433494
54	0x3df63ff6	0.12023918
55	0xbc89a2e7	-0.01680131
56	0x3d59e335	0.053195197
57	0xbcce51f2	-0.025185559
58	0x3cb9ba8c	0.02267196
59	0x3cfe7e6f	0.031066148
60	0xbe453562	-0.19258645
61	0xbdd28800	-0.10279846
62	0x3e8be193	0.27320537
63	0xbe3a0e61	-0.18169548
64	0x3d91a8e3	0.07112291
65	0xbe3083f1	-0.17237832
66	0x3e1a1f5f	0.1505103
67	0xbe81d078	-0.25354362
68	0x3ccc80ea	0.024963815
69	0xbd637ecd	-0.05554085
70	0xbe2cbc47	-0.16868697
71	0x3dcbdeab	0.0995458
72	0xbc842f11	-0.016135724
73	0xbd2baf28	-0.04191509
74	0x3d3ab775	0.045585115
75	0xbd50e3ac	-0.050998375
76	0x3dab634f	0.08368551
77	0xbdc3d17e	-0.09561442
78	0x3de63f16	0.112425014
79	0x3d05c216	0.032655798
80	0xbd900676	-0.07032482
81	0xbbcfafd4	-0.006338099
82	0xbc6aa921	-0.01432255
83	0xbb11a3f5	-0.002222297
84	0xbc49fd1e	-0.012328414
85	0xbc35cd45	-0.011096303
86	0xbc801509	-0.01563503
87	0xbe290403	-0.16505437
88	0xbd08890e	-0.03333383
89	0x3e8a968f	0.27067992
90	0xbdcffd60	-0.10155749
91	0x3d7fc9b3	0.062448215
92	0x3cca7275	0.02471278
93	0xbd41d32e	-0.047320537
94	0xb92cc530	-0.00016476656
95	0xbce23e01	-0.027617456
96	0xbd0896a7	-0.0333468
97	0x3d9463b4	0.07245579
98	0xbd4b542e	-0.049640827
99	0xbdc45213	-0.09585967
100	0x3de4e425	0.111763276
101	0x3e3d7349	0.18501009
102	0x3bc85ea1	0.0061147963
103	0xbe2f76ee	-0.17135212
104	0xbd147d42	-0.036252268
105	0x3e1431f7	0.14472185
106	0xbcdeb391	-0.027185233
107	0xbd9660f8	-0.07342714
108	0x3d2d8b56	0.04236921
109	0xbcaa748e	-0.02080753
110	0xbdd39353	-0.10330834
111	0x3da0a36a	0.07843669
112	0x3db1e164	0.08685568
113	0xbe0ead8f	-0.13933395
114	0x3a626b6e	0.0008637224
115	0x3e8f5066	0.27991027
116	0x3a99e5f5	0.0011741506
117	0x3cbfb2aa	0.023400623
118	0xbd828456	-0.06372897
119	0x3c8e4113	0.017365014
120	0x3b4f843a	0.0031664507
121	0x3cf181d7	0.029480858
122	0x3c22c9cc	0.009935807
123	0xbd3f2d87	-0.046674278
124	0xbd87bc30	-0.06627691
125	0x3d2262d1	0.03964502
126	0xbd64e0c4	-0.055878416
127	0xbd039215	-0.032121737
128	0x3cdb3800	0.026760101
129	0xbca5b1b0	-0.02022633
130	0x3c140bb2	0.0090359915
131	0xbe6a12b0	-0.22858691
132	0xbe232a03	-0.15933995
133	0xbd18faf7	-0.037348714
134	0xbd171428	-0.036884457
135	0x3caca4b6	0.021074634
136	0xbd93752a	-0.07200082
137	0x3d82b722	0.06382586
138	0xbce38b40	-0.02777636
139	0x3d84f9db	0.06492969
140	0x3b561d32	0.003267121
141	0xbe716fed	-0.23577853
142	0xbdb89223	-0.09012248
143	0x3dcb6397	0.09931105
144	0xbb70c919	-0.0036740957
145	0xbe8a7096	-0.2703902
146	0x3d94e323	0.072698854
147	0x3dde1f8e	0.10845862
148	0xbddf3949	-0.10899598
149	0x3d95a8f8	0.07307619
150	0xbd90b330	-0.07065427
151	0x3e3fc54b	0.18727605
152	0x3ddf7b57	0.10912197
153	0xbd1a83b3	-0.037723254
154	0xbe157b23	-0.14597754
155	0xbd379904	-0.04482366
156	0xbdd510b4	-0.104035765
157	0xbe96ce8f	-0.29454467
158	0x3dcf20a1	0.10113645
159	0x3e0c06e8	0.1367451
160	0x3d421b26	0.047389172
161	0xbd6d0a83	-0.057871353
162	0x3cd1ff52	0.025634442
163	0x3ae6420b	0.001756729
164	0x3c3c8e62	0.011508556
165	0xbd939fe4	-0.07208231
166	0xbd00331c	-0.03129874
167	0x3cf5795d	0.029965097
168	0x3db1adf9	0.08675761
169	0x3d8b0e03	0.06789782
170	0xbdba316e	-0.09091459
171	0x3dbb0e9d	0.09133647
172	0x3df9dddc	0.122005194
173	0x3e45e276	0.19324669
174	0x3d4e7370	0.05040306
175	0x3d2ee84b	0.042702
176	0xbb0ab5bc	-0.002116545
177	0x3d928c52	0.0715567
178	0x3db8d992	0.09025873
179	0x3e2a97ef	0.1665952
180	0x3c843501	0.016138555
181	0xbe235c3e	-0.15953156
182	0xbe209601	-0.15682222
183	0xbd59bc73	-0.053158235
184	0xbdbcf369	-0.09226114
185	0xbdca5113	-0.09878745
186	0xbc9868fa	-0.018604744
187	0xbd892b4b	-0.066977106
188	0x3dc80d43	0.097681545
189	0x3d5d0477	0.053959336
190	0xbe37b11f	-0.1793866
191	0xbd8cb01d	-0.068695284
192	0x3d14a2c3	0.036288034
193	0xbdad77d0	-0.08470118
194	0xbe08462b	-0.13308017
195	0x3e02ef00	0.12786484
196	0xbb65909f	-0.0035028828
197	0xbad9220f	-0.0016565936
198	0x3c6da558	0.014504753
199	0xbb8783d2	-0.0041355873
200	0x3d21e2c3	0.039522897
201	0xbde19aab	-0.11015829
202	0x3e066045	0.13122661
203	0x3e130598	0.14357603
204	0xbe462b16	-0.19352373
205	0x3c879083	0.0165484
206	0x3d8657f4	0.065597445
207	0xbda8aa48	-0.082356036
208	0x3e0693db	0.1314234
209	0xbdc3f915	-0.09568993
210	0x3e2a79e9	0.16648068
211	0xbdaf8013	-0.0856935
212	0xbdc0362c	-0.093853325
213	0x3d49700b	0.049179118
214	0x3d8b37b2	0.067977324
215	0xbd71dd8d	-0.059049178
216	0x3da3edd8	0.080043495
217	0x3c645a3e	0.013937531
218	0x3c97d243	0.018532878
219	0x3c822d52	0.015890751
220	0x3af2efec	0.0018534637
221	0x3e98d8ca	0.29852897
222	0x3da56d6d	0.08077512
223	0xbdac4c51	-0.08412994
224	0xbd4adfc5	-0.04952981
225	0xbd2c1596	-0.042012773
226	0x3daa809f	0.08325314
227	0x3e03c23e	0.12867066
228	0x3ce47667	0.02788849
229	0x3ccfb0ce	0.025352862
230	0xbd0bf569	-0.03416959
231	0xbe7ab3f3	-0.24482708
232	0x3c0eb5f3	0.008710372
233	0x3e05ff8c	0.13085765
234	0x3a133236	0.0005615087
235	0x3d2f28dc	0.042763576
236	0x3d4597cd	0.04824047
237	0x3d9b1242	0.07571842
238	0x3c7a39f5	0.015272607
239	0xbd5ebe37	-0.05438062
240	0x3b817a8a	0.0039513754
241	0xbd8cc9f9	-0.06874461
242	0x3d18f9f5	0.037347753
243	0x3d62a140	0.05532956
244	0x3d9ae477	0.075631075
245	0x3e7e7279	0.24848355
246	0x3d6e1ca4	0.058132783
247	0x3d80c510	0.06287587
248	0x3de46994	0.1115295
249	0x3e175a36	0.14780506
250	0xbd24474b	-0.040107053
251	0x3d9c8a2d	0.076435424
252	0xbe666af3	-0.22501735
253	0x3df30eda	0.11868067
254	0xbca96f19	-0.020682858
255	0xbd752ede	-0.05985915

hidden_layers.0.weight f4 [128, 256]
0	0xbcf2f110	-0.029655963
1	0xbdb648d5	-0.0890061
2	0x3e635f4f	0.22204326
3	0x3c999afe	0.018750664
4	0xbd5918fd	-0.053002346
5	0xbcd1727f	-0.025567291
6	0xbdcc9718	-0.09989756
7	0x3d781189	0.060563598
8	0x3cbd639e	0.02311879
9	0x3b183bc4	0.0023228982
10	0xbd07882f	-0.03308886
11	0xbc4ffb43	-0.012694183
12	0xbd0b41e0	-0.03399837
13	0x3dccb6e1	0.09995819
14	0xbd3323d2	-0.043735333
15	0x3dab7f6f	0.083739154
16	0xbd93b021	-0.07211328
17	0xbe0d43b8	-0.13795364
18	0x3db48037	0.088135175
19	0x3c0f7160	0.008755058
20	0xbcf9da33	-0.030499553
21	0x3ccd6f77	0.025077565
22	0x3d54256a	0.051793493
23	0x3aa9dcf6	0.0012959528
24	0x3d9af74d	0.075667
25	0x3dce9211	0.10086454
26	0x3ca02de6	0.019553136
27	0x3cc8fa12	0.024533305
28	0xbdf11aba	-0.11772676
29	0xbe9a6055	-0.3015162
30	0xbdcd54b3	-0.10025921
31	0xbcdcba43	-0.026944285
32	0xbd4630a2	-0.048386224
33	0x3d2356a7	0.03987756
34	0xbde017ac	-0.10942015
35	0xbde01b7b	-0.109427415
36	0x3e1f7c88	0.15574849
37	0x3da6e372	0.081488505
38	0xbd259666	-0.040426634
39	0x3c20ca11	0.009813801
40	0xbe0f51fa	-0.13996115
41	0x3d9fa075	0.077942766
42	0x3e098b12	0.13431957
43	0xbd927af3	-0.07152357
44	0x3d0f7792	0.03502614
45	0xbd2700cb	-0.04077224
46	0xbe105ee4	-0.14098698
47	0xbde31d89	-0.11089618
48	0xbd771e4c	-0.060331628
49	0x3da326f1	0.07966412
50	0x3ced8328	0.028993204
51	0xbdd44e78	-0.10366529
52	0xbc0c6801	-0.008569718
53	0x3c8e3ba2	0.01736242
54	0x3d91698e	0.07100211
55	0xbd53833f	-0.051638838
56	0x3d506df2	0.050886102
57	0xbd5c2980	-0.053750515
58	0xbd68d9e8	-0.056848437
59	0xbd500949	-0.050790105
60	0x3c28f7cb	0.010312985
61	0xbdb1791c	-0.08665678
62	0xbd98729d	-0.07443736
63	0xbd77a95e	-0.060464256
64	0xbd7cda62	-0.061731704
65	0xbc3a78c7	-0.011381335
66	0xbd67976a	-0.056540884
67	0xbdc923a9	-0.09821255
68	0xbd20aa05	-0.039224643
69	0xbd8f5f0d	-0.070005514
70	0xbc931155	-0.0179526
71	0xbd00161e	-0.031271093
72	0x3d351cba	0.04421685
73	0xbac81a84	-0.0015266691
74	0x3cb458cb	0.022014996
75	0x3e0a7a63	0.1352325
76	0xbd08ebfb	-0.033428174
77	0xbe0c4456	-0.13697943
78	0xbdb21dda	-0.086971
79	0xbac83ed8	-0.0015277518
80	0xbde0c962	-0.10975911
81	0x3d1c676e	0.038184576
82	0x3de46ffe	0.11154173
83	0x3d7a9d99	0.061185453
84	0x3cc712f7	0.024301035
85	0x3ce306c4	0.027713187
86	0x3c78229a	0.015144968
87	0xbe0b50da	-0.13605061
88	0xbcd62b5f	-0.026143728
89	0xbe0feab6	-0.14054379
90	0xbdd9a6a0	-0.10627484
91	0x3c7e2e4e	0.01551397
92	0x3db1b233	0.08676567
93	0xbd95f79f	-0.073226206
94	0x3de355c4	0.11100343
95	0xbd83cc79	-0.064354844
96	0xbdb732bc	-0.08945224
97	0x3ccf4605	0.025301943
98	0xbdff3b3c	-0.1246247
99	0xbe42220e	-0.18958303
100	0x3d192480	0.037388325
101	0x3b3e6959	0.0029054491
102	0xbd915135	-0.07095567
103	0xbb8ef7e9	-0.0043630493
104	0xbd5595fc	-0.05214499
105	0xbcad3ac0	-0.021146178
106	0xbe2356dd	-0.15951104
107	0xbd3e0e6e	-0.04640048
108	0xbd3c8c35	-0.04603215
109	0xbe52726e	-0.20551464
110	0x3d4ad603	0.049520504
111	0x3de27997	0.11058348
112	0x3d7c5780	0.061606884
113	0xbd912b35	-0.07088319
114	0xbbda5f7a	-0.0066642137
115	0x3d6aecd5	0.057354767
116	0x3c4e8033	0.012603807
117	0xbe18687b	-0.14883606
118	0x3da297e9	0.07939131
119	0xbd579d1b	-0.05264006
120	0xbd913788	-0.0709067
121	0x3c9fd798	0.019511983
122	0xbd55f73f	-0.052237745
123	0x3dc9eb92	0.098593846
124	0xbdf6636f	-0.12030684
125	0xbd0de31b	-0.034640413
126	0xbcab0c7b	-0.020879975
127	0xbd9a871a	-0.075453
128	0x3e0943e8	0.1340481
129	0x3bf919f9	0.007601973
130	0xbdb1daf5	-0.08684341
131	0xbda3b251	-0.079929955
132	0xbda122fa	-0.078679994
133	0x3e270b0a	0.16312805
134	0x3e1a2887	0.15054522
135	0x3dbfaf37	0.093595915
136	0x3b527b3b	0.0032116908
137	0xbdbaacf0	-0.091150165
138	0x3d566477	0.052341904
139	0xbc87d60d	-0.01658156
140	0xbda54e26	-0.08071546
141	0x3d6d5a2a	0.057947315
142	0x3cedd645	0.029032836
143	0xbd665007	-0.056228664
144	0x3d8233ae	0.06357513
145	0x3ca66412	0.02031139
146	0xbd2a6b8f	-0.041606482
147	0x3d83331b	0.06406232
148	0x3d55f931	0.0522396
149	0xbce78903	-0.028263574
150	0xbbc56c3e	-0.0060248664
151	0x3da508fd	0.08058355
152	0x3dc3eec9	0.09567029
153	0xbdacdf7b	-0.08441063
154	0x3d894179	0.06701941
155	0xbd94371a	-0.07237072
156	0x3c5ec613	0.013597029
157	0xbc2a1c77	-0.010382763
158	0x3d290ed0	0.041273892
159	0x3cb1b5ec	0.021693192
160	0x3c7cc83c	0.015428599
161	0xbcd7960c	-0.026316665
162	0x3dbbf012	0.09176649
163	0xbd9a9719	-0.07548351
164	0x3caa712b	0.020805916
165	0xbd229664	-0.039694205
166	0xbd90a8d9	-0.07063455
167	0xbd11ed7a	-0.035626866
168	0x3dc340ff	0.095338814
169	0x3ca00193	0.019532
170	0x3d155cc9	0.03646544
171	0xbb46f97e	-0.0030361111
172	0xbcedd8cc	-0.02903404
173	0x3db4afaf	0.088225715
174	0xbb7adfa4	-0.0038280273
175	0xbd583727	-0.052786972
176	0xbd6ec1f4	-0.058290437
177	0xbe29b754	-0.1657384
178	0xbd8fa659	-0.0701415
179	0xbd08fc53	-0.03344376
180	0xbe2eda88	-0.1707555
181	0xbda3ee6b	-0.08004459
182	0xbcb6af5d	-0.022300417
183	0x3ab55e26	0.0013837263
184	0x3df7442f	0.12073552
185	0x3da23146	0.079195544
186	0xbdcb3647	-0.09922462
187	0xbd1f7ce0	-0.03893745
188	0x3c79af3b	0.015239532
189	0x3c6dc4b1	0.014512227
190	0x3d8bea69	0.068318196
191	0x3c755c38	0.0149756
192	0xbe167960	-0.14694738
193	0x3d0b664c	0.034033105
194	0xbe232b7d	-0.15934558
195	0xbc6cd79c	-0.014455702
196	0xbdf7a577	-0.12092107
197	0x3dcbe098	0.09954947
198	0xbbc7674a	-0.006085311
199	0x3d972b07	0.07381254
200	0x3ccc3ff4	0.024932839
201	0xbe839133	-0.25696716
202	0x3dbfc89a	0.093644336
203	0x3c80dab0	0.015729278
204	0x3d8dfd82	0.069331184
205	0x3cf0413c	0.029327981
206	0x3c96a249	0.01838793
207	0xbcc47c47	-0.023985041
208	0x3d87f18c	0.06637868
209	0xbd8c9d5a	-0.0686595
210	0xbd82944f	-0.06375944
211	0xbdd32810	-0.10310376
212	0xbe11d707	-0.14242183
213	0xbcd6e29a	-0.026231099
214	0x3d84d8f7	0.06486695
215	0x3de8c8b9	0.1136641
216	0x3cf2018a	0.02954175
217	0x3def2a1d	0.11677954
218	0x3d98b0ee	0.07455622
219	0x3ddae1d3	0.10687604
220	0x3e008de9	0.12554134
221	0xbd80a305	-0.062810935
222	0xbdb813b3	-0.08988132
223	0xbdf0f33c	-0.11765143
224	0x3d802332	0.06256713
225	0xbd8f35e2	-0.06992699
226	0x3c4d98c6	0.012548631
227	0x3c83ec2e	0.01610383
228	0x3b59fc78	0.0033262055
229	0x3d167c75	0.036739785
230	0x3d45eeb5	0.048323352
231	0xbd5898f3	-0.05288024
232	0xbd173e98	-0.03692493
233	0xbd875871	-0.06608666
234	0x3c0051e1	0.007832021
235	0xbdc4cf73	-0.0960988
236	0xbd2b5101	-0.0418253
237	0xbd453dde	-0.048154704
238	0x3de4bb3b	0.11168524
239	0xbd608a2d	-0.054819275
240	0x3d555655	0.052084286
241	0x3d1ca290	0.03824097
242	0xbc147683	-0.0090614585
243	0x3db883d9	0.09009523
244	0xbc507223	-0.012722525
245	0xbda18170	-0.07886016
246	0x3d586bab	0.052837055
247	0x3c871897	0.016491218
248	0x3d93b42e	0.07212101
249	0x3ddd0945	0.10792784
250	0xbe03f1a4	-0.12885147
251	0x3c88e560	0.016710937
252	0x3d96c0ec	0.07361016
253	0x3dc004ae	0.093758926
254	0xbd145552	-0.03621418
255	0x3dc0739f	0.09397053

hidden_layers.0.bias f4 [128]
0	0x3d933f18	0.071897686
1	0x3c5766e5	0.013147091
2	0x3ca6a2bc	0.02034127
3	0x3d632040	0.055450678
4	0x3d45e855	0.048317272
5	0x3ce0fca8	0.027464226
6	0x3d86711d	0.065645434
7	0x3cd630e8	0.026146367
8	0x3b1d4bd5	0.0024001498
9	0xbcacf2e7	-0.021111919
10	0xbc41e183	-0.011833551
11	0xbd86adfa	-0.06576152
12	0x3dcfad3c	0.10140464
13	0x3dbaff42	0.09130718
14	0xbd4779c5	-0.048700113
15	0xbd01c57a	-0.03168247
16	0xbd5596e8	-0.05214587
17	0xbc832e54	-0.016013302
18	0x3ba83506	0.005133274
19	0xbd8c55a6	-0.06852274
20	0x3dd822fa	0.10553546
21	0x3d3397eb	0.043846052
22	0xbc383fb1	-0.011245654
23	0x3d1c4a96	0.03815707
24	0x3d3b6274	0.04574819
25	0x3cbacc83	0.022802597
26	0xbd52fbd9	-0.051509712
27	0xbcb7a049	-0.022415297
28	0xbd8ba0d3	-0.06817784
29	0x3c8e2039	0.01734935
30	0x3db7ef8c	0.08981237
31	0xbcfdfcf3	-0.031004405
32	0xbc0f15f7	-0.008733264
33	0x3c7f8564	0.015595768
34	0xbd68658a	-0.05673746
35	0xbbab76e2	-0.005232678
36	0xbd17bc5f	-0.03704488
37	0x3c948df2	0.018134091
38	0xbd10eab4	-0.03538008
39	0x3d115f3a	0.035491206
40	0xbc4cd44d	-0.012501788
41	0xbd8dc548	-0.06922394
42	0xbddc05ba	-0.1074328
43	0xbd2807fa	-0.041023232
44	0x3d54f1b6	0.051988326
45	0xbc799f42	-0.015235724
46	0x3d680812	0.05664832
47	0x3c9136cb	0.017726323
48	0x3c4c0242	0.01245171
49	0xbd20400f	-0.03912359
50	0x3cafccd6	0.021459978
51	0xbcb2e955	-0.021839777
52	0xbcd9a72a	-0.026568968
53	0x3c9c0184	0.019043691
54	0x3d5cda30	0.053919017
55	0x3c07aa94	0.008280415
56	0x3d406094	0.046967104
57	0xbd24a9f9	-0.04020116
58	0xbc1a8fdb	-0.009433712
59	0x3b5625ff	0.0032676456
60	0x3d84e36d	0.064886905
61	0x3d08583b	0.033287268
62	0xbcc32198	-0.02381973
63	0x3d273901	0.040825848
64	0x3b82a4df	0.0039869393
65	0x3c5eb5b3	0.013593125
66	0x3d0bee45	0.03416278
67	0x3d9369cc	0.071979135
68	0x3d5d8693	0.054083418
69	0x3c3e91ff	0.011631488
70	0xbc30dda6	-0.010795033
71	0x3c92edae	0.0179356
72	0xbc8481d5	-0.01617519
73	0x3c9718aa	0.018444378
74	0x3db093fd	0.086219765
75	0xbd360279	-0.04443595
76	0xbd6fd013	-0.058548044
77	0xbab8d571	-0.0014101696
78	0xbd892579	-0.066966005
79	0xbccb4d23	-0.024817055
80	0xbd5b2610	-0.053503096
81	0x3cc474a1	0.023981394
82	0xbc2363f4	-0.009972561
83	0xbc618940	-0.013765633
84	0x3b80bd57	0.003928821
85	0x3d3c61dc	0.045991763
86	0xbcbc5f5e	-0.022994693
87	0x3d16946b	0.036762636
88	0xbc05378b	-0.008130918
89	0x3d1e8028	0.038696438
90	0xbd4f2411	-0.050571505
91	0x3daa433d	0.08313606
92	0x3ca2ec82	0.019888166
93	0xbdbc3d08	-0.09191328
94	0xbdb541ac	-0.088504165
95	0xbda4f482	-0.08054449
96	0x3c083952	0.0083144475
97	0x3ce9c21a	0.028534938
98	0x3c5c0e09	0.013431081
99	0xbd6e869b	-0.05823384
100	0xbd83d579	-0.06437201
101	0x3cd848ea	0.026401956
102	0x3d907c71	0.07054985
103	0x3d1d8dc5	0.03846528
104	0x3da71b8a	0.081595495
105	0x3da8932c	0.08231196
106	0xbcd1a704	-0.025592335
107	0x3b461587	0.0030225234
108	0x3cd99536	0.026560407
109	0x3d5a2dc7	0.053266313
110	0x3d4e7308	0.05040267
111	0x3ba9d8d4	0.0051833186
112	0xbcaea62b	-0.02131947
113	0x3d111ba6	0.03542676
114	0x3d45d19e	0.04829561
115	0x3c8af910	0.016964465
116	0xbde76513	-0.11298575
117	0xba62f87e	-0.0008658244
118	0x3cf257e8	0.029582933
119	0x3cb64895	0.022251407
120	0xbcc9c9e6	-0.024632405
121	0xbcee0250	-0.029053837
122	0x3b1e86a8	0.0024189148
123	0x3ce50189	0.027954834
124	0x3c03149f	0.008000522
125	0x3d21c79d	0.039497007
126	0xbd911aa6	-0.07085161
127	0xbdd53e29	-0.10412247

hidden_layers.1.weight f4 [64, 128]
0	0xbde53b4c	-0.111929506
1	0x3d91695c	0.07100174
2	0x3dfb70c7	0.1227737
3	0xbd69bea4	-0.057066575
4	0xbc85159a	-0.016245652
5	0x3e18b52a	0.14912859
6	0xbe0a9de7	-0.13536797
7	0x3d079bbc	0.033107504
8	0x3c0e8d57	0.00870069
9	0xbc5b86a0	-0.013398796
10	0xbdb2478a	-0.08705051
11	0xbda937b6	-0.08262579
12	0x3dd5f8e0	0.1044786
13	0x3bb237de	0.005438789
14	0xbbfa299d	-0.007634355
15	0xbdbdcedd	-0.09267972
16	0x3d1b65b7	0.0379388
17	0x3bffe57f	0.0078093405
18	0xbe348ec1	-0.17632581
19	0xbd21b0de	-0.039475314
20	0x3d5ad78b	0.053428214
21	0xbc5f7800	-0.01363945
22	0x3d2fb1a3	0.042894017
23	0x3df787e0	0.12086463
24	0xbd0b5ca1	-0.034023885
25	0xbeab0e90	-0.33409548
26	0x3d77131c	0.06032096
27	0x3daa34ba	0.08310838
28	0xbe0d2e27	-0.13787137
29	0x3e777065	0.24163969
30	0x3c2c00ed	0.010498268
31	0x3d77ed95	0.06052931
32	0x3e1db88d	0.15402432
33	0x3debc384	0.11511901
34	0xbbcc7470	-0.0062394664
35	0x3dc02d9e	0.09383701
36	0xbd1f48d3	-0.03888781
37	0x3dbd8ac2	0.092549816
38	0xbd1fa66d	-0.038977075
39	0xbdbe2bb2	-0.09285678
40	0xbcad2c50	-0.021139294
41	0x3d86fd7a	0.065913156
42	0xbd0953ba	-0.033527113
43	0x3e041d8b	0.12901895
44	0xbc16d8f5	-0.009207
45	0xbd950e5c	-0.072781295
46	0xbe4ffea7	-0.20311986
47	0xbdac5734	-0.0841507
48	0xbe22de48	-0.15905106
49	0x3db25f11	0.08709539
50	0xbd775b9e	-0.060390107
51	0xbd9fb836	-0.07798807
52	0x3e191e12	0.14952877
53	0x3c28cbbe	0.010302482
54	0xbd187025	-0.037216324
55	0x3d3c71f9	0.04600713
56	0xbdcf4ed0	-0.10122454
57	0x3dfe8470	0.12427604
58	0x3db0b7d6	0.08628814
59	0xbb605e1d	-0.0034235783
60	0xbd9011de	-0.07034658
61	0x3da9a84b	0.082840525
62	0xbc48fc3f	-0.012267171
63	0xbe33b760	-0.17550421
64	0x3cb100b4	0.02160678
65	0xbd9f183c	-0.07768294
66	0xbe9c383e	-0.3051166
67	0x3da49fe1	0.08038307
68	0xbd3ab3bb	-0.04558156
69	0xbd6a0668	-0.057135016
70	0x3e7f0ff9	0.24908437
71	0x3d82af4d	0.06381092
72	0x3be05426	0.006845969
73	0xbd962d04	-0.07332805
74	0x3a23ff90	0.00062560383
75	0xbd67ce08	-0.05659297
76	0xbd56292d	-0.052285362
77	0xbe0b8a89	-0.13627066
78	0x3d6d17c4	0.057883993
79	0xbd186f74	-0.037215665
80	0x3d7fba7d	0.06243371
81	0xbccaadf8	-0.024741158
82	0x3c6aec09	0.014338502
83	0x3e4c8c9e	0.19975516
84	0x3c161c9f	0.009162097
85	0xbe190953	-0.14944963
86	0x3d9b3a2f	0.07579457
87	0xbe4bce90	-0.19903016
88	0x3c1301dd	0.008972612
89	0x3d3a1ddf	0.045438644
90	0xbe322649	-0.17397417
91	0xbd22c7ba	-0.039741255
92	0xbd2a52e0	-0.041582942
93	0xbbcc58b0	-0.0062361583
94	0x396dafbe	0.0002266755
95	0xbda6d059	-0.08145208
96	0x3defe7c3	0.11714127
97	0xba4cde60	-0.0007815119
98	0xbd25c6b0	-0.040472686
99	0x3d34ad7b	0.044110756
100	0xbcc64aff	-0.024205683
101	0x3dd74434	0.105110556
102	0xbdd8a207	-0.10577779
103	0xbdada5b0	-0.08478868
104	0xbe0aa870	-0.13540816
105	0xbc9f8352	-0.019471798
106	0x3e116c9a	0.14201584
107	0x3dd12174	0.10211459
108	0x3afc114a	0.0019231227
109	0xbe3653fe	-0.17805478
110	0x3c98a09f	0.018631278
111	0x3e209aaf	0.15684007
112	0x3d8896f2	0.066694155
113	0xbd4c9201	-0.049943928
114	0xbe06bed4	-0.13158733
115	0xbd066d11	-0.032818858
116	0xbd5eda0b	-0.05440716
117	0xbd94883c	-0.07252547
118	0xbe26c60c	-0.16286486
119	0xbcc645d7	-0.024203224
120	0x3e099543	0.13435845
121	0x3baa56e8	0.0051983483
122	0xb950d516	-0.00019915806
123	0xbce66935	-0.028126338
124	0x3dac8ee0	0.08425689
125	0xbe01d9a8	-0.12680686
126	0x3de80281	0.113286026
127	0x3cefbe1b	0.029265454
128	0x3d4a5a28	0.049402386
129	0xbd7b3e64	-0.061338797
130	0x3dfa40e9	0.12219412
131	0x3e02ad14	0.12761337
132	0x3d3e7709	0.04650024
133	0xbddd479d	-0.10804675
134	0x3d9d8e68	0.076931775
135	0xbe0f5d9e	-0.14000556
136	0x3dc76ce9	0.0973757
137	0xbd45d322	-0.048297055
138	0x3dd9ff43	0.106443904
139	0x3c978dda	0.018500257
140	0xbe3c9d61	-0.1841941
141	0x3c8cf820	0.017208159
142	0xbd985781	-0.07438565
143	0x3e749ce0	0.23887968
144	0xbdec2352	-0.11530174
145	0x3e39cf04	0.18145376
146	0xbdedd731	-0.1161331
147	0x3d91d93b	0.071215115
148	0x3e6066ba	0.21914187
149	0x3ddacc0c	0.1068345
150	0x3e93dfba	0.28881627
151	0xbde8abd4	-0.113608986
152	0x3dac5bbf	0.08415937
153	0xbd8fa1e1	-0.07013298
154	0x3e253290	0.1613257
155	0x3e3ed781	0.18636896
156	0xbde5a0ec	-0.11212334
157	0x3d51ffb7	0.05126926
158	0x3e1f88fd	0.155796
159	0x3e28d00c	0.16485614
160	0x3cf16480	0.029466867
161	0x3da21f56	0.07916133
162	0x3d883ae6	0.06651859
163	0xbdaf0d33	-0.085474394
164	0xbd519805	-0.051170368
165	0xbc140b6a	-0.009035924
166	0xbd21027f	-0.03930902
167	0x3e20b504	0.15694052
168	0xbd131cc4	-0.035916105
169	0xbe2f7870	-0.17135787
170	0xbe38eed0	-0.1805985
171	0xbd818afd	-0.06325338
172	0x3e4b8743	0.19875817
173	0xbcbe1b52	-0.023206387
174	0x3e406954	0.1879018
175	0xbcb1b72e	-0.021693792
176	0xbe05e237	-0.13074575
177	0xbdafde85	-0.08587364
178	0xbe9918a6	-0.29901618
179	0x3d92e8cb	0.07173308
180	0xbdb8c1ef	-0.09021365
181	0x3c933596	0.017969888
182	0xbdb2f4ea	-0.0873812
183	0xbd80c3ab	-0.06287321
184	0x3e1d8982	0.15384486
185	0x3d86bddd	0.06579182
186	0xbde4bfeb	-0.11169418
187	0x3d882b59	0.06648893
188	0xbe27dbd2	-0.16392449
189	0x3d61388a	0.05498556
190	0xbe1f4e6e	-0.15557262
191	0xbd88a44f	-0.066719644
192	0x3d7c489f	0.061592694
193	0x3df9104b	0.12161311
194	0xbc99cf4e	-0.018775608
195	0x3e1ec4f0	0.15504813
196	0xbcf244ee	-0.029573884
197	0xbc93f6d9	-0.018062042
198	0x3e242f51	0.16033675
199	0xbe8234eb	-0.25430998
200	0xbdeffccf	-0.11718141
201	0xbe07c91a	-0.13260308
202	0x3da4c8a2	0.0804608
203	0x3d6ba3ea	0.057529368
204	0xbdbcfc02	-0.09227754
205	0xba1d1d3d	-0.00059934316
206	0x3c62a588	0.013833411
207	0xbda5f679	-0.081036516
208	0xbc3ee559	-0.01165136
209	0xbc8a724a	-0.0169002
210	0x3dd48005	0.1037598
211	0x3d30b70b	0.043143313
212	0xbd8d90c5	-0.06912378
213	0xbdc0ce7a	-0.09414382
214	0x3de042d7	0.10950249
215	0xbdd9c53c	-0.106333226
216	0x3ca27c73	0.019834733
217	0xbd90d6c5	-0.07072214
218	0xbd897503	-0.06711771
219	0x3db3ec05	0.087852515
220	0x3d49a8ad	0.049233127
221	0x3e015023	0.12628226
222	0x3be5da5f	0.0070145573
223	0x3c41ff23	0.0118406145
224	0x3cf9cb9c	0.030492596
225	0x3cdd5a80	0.027020693
226	0xbdee223a	-0.11627622
227	0x3d7b95c3	0.06142212
228	0x3d62bdb9	0.055356715
229	0x3e17efbe	0.14837548
230	0xbdd8906e	-0.10574423
231	0xbd26336e	-0.04057639
232	0x3e401040	0.18756199
233	0x3d2d0d31	0.04224891
234	0x3d8c3efc	0.06847951
235	0xbc81bb86	-0.015836488
236	0x3da13b88	0.07872683
237	0xbd66919d	-0.05629121
238	0x3da6aa5f	0.081379645
239	0x3d87de57	0.06634205
240	0xbc9b7d48	-0.018980637
241	0x3d0cf46a	0.03441278
242	0xbddf7ea6	-0.10912828
243	0xbe06bdd8	-0.13158357
244	0x3cd39375	0.025827149
245	0xbd97b13f	-0.07406854
246	0xbe2ef740	-0.17086506
247	0xbdaeb248	-0.08530098
248	0xbd980e7c	-0.07424638
249	0xbd6b3b21	-0.057429437
250	0xbe014dc3	-0.1262732
251	0xbc587b3f	-0.013212978
252	0xbc01319b	-0.007885362
253	0x3e208962	0.15677407
254	0x3dc7de9e	0.09759258
255	0x3ca6b34a	0.020349164

hidden_layers.1.bias f4 [64]
0	0xbcd14f84	-0.025550611
1	0x3d0e7650	0.0347808
2	0x3d60964d	0.054830838
3	0x3db5b9a3	0.08873298
4	0xbcaaf6ae	-0.02086958
5	0xbcfa7c6b	-0.030576905
6	0xbde96ae8	-0.11397344
7	0x3d7643b3	0.060123157
8	0x3d2db601	0.0424099
9	0x3b401c7a	0.0029313848
10	0xbc3f7836	-0.011686375
11	0x3d8f337e	0.06992243
12	0xbd51ae25	-0.051191468
13	0xbda10341	-0.07861949
14	0xbdc0d0a4	-0.09414795
15	0x3d191d3b	0.037381392
16	0x3b95ddc4	0.0045735557
17	0xbdc0bb8d	-0.094107725
18	0xbca19e51	-0.019728811
19	0xbcf4df16	-0.029891532
20	0xbd7fc552	-0.06244404
21	0xbd81ee42	-0.06344272
22	0xbdacd1ab	-0.084384285
23	0x3d5fc2e3	0.054629218
24	0xbd323f72	-0.043517537
25	0xbbc46850	-0.0059938803
26	0xbb84a353	-0.00404779
27	0xbd70347f	-0.058643814
28	0xbcf3d523	-0.029764717
29	0x3e1c4dcd	0.15264054
30	0x3d03ca86	0.032175563
31	0xbd853840	-0.065048695
32	0x3ba34442	0.004982502
33	0xbdad6c7c	-0.084679574
34	0xbde7e94b	-0.11323794
35	0x3ccc3896	0.024929326
36	0xbda9507f	-0.082673065
37	0xbd5432ee	-0.051806383
38	0xbcdc23fb	-0.026872626
39	0x3cc24b80	0.023717642
40	0xbd755d0f	-0.0599032
41	0x3d3bb230	0.04582423
42	0x3dc82398	0.09772414
43	0x3c4ae23a	0.012383038
44	0xbd288490	-0.041142046
45	0xbd4ec323	-0.050479066
46	0x3c9ef783	0.019405132
47	0x3d72f6c2	0.059317358
48	0x3d62dbd6	0.055385433
49	0xbcc26556	-0.023729961
50	0xbca4c370	-0.020112723
51	0xbd2f3a6f	-0.042780336
52	0x3d9d6055	0.076843895
53	0xbd8cb9e8	-0.06871396
54	0x3cca8156	0.024719875
55	0xbd2b124e	-0.041765504
56	0x3d0ef13d	0.03489803
57	0xbcb3b8a8	-0.021938637
58	0x3ca180b3	0.019714689
59	0x3bbecd72	0.005822831
60	0xbca05b2a	-0.01957472
61	0x3c01a50c	0.007912885
62	0x3d5b0e8e	0.053480677
63	0xbd683bd7	-0.056697693

output_layer.weight f4 [10, 64]
0	0x3e136556	0.14394125
1	0xbd8edf99	-0.069762416
2	0x3d4bf32a	0.049792446
3	0x3d03e43f	0.032200094
4	0xbe1d5a76	-0.1536654
5	0xbdaea5ae	-0.08527695
6	0xbe722352	-0.23646286
7	0x3e9b7107	0.3035967
8	0x3e225182	0.15851405
9	0xbea1c1b4	-0.31593096
10	0x3e8bcf0b	0.273064
11	0xbe176555	-0.14784749
12	0x3e130ac1	0.14359571
13	0xbd849afe	-0.06474875
14	0x3e0c70cb	0.13714902
15	0x3e7bbba2	0.24583295
16	0x3e934391	0.28762487
17	0x3e54f4f5	0.20796569
18	0x3e21affb	0.15789787
19	0xbe532de9	-0.20622982
20	0xbe22d596	-0.15901789
21	0xbe9ad577	-0.30240986
22	0x3e15a7f7	0.14614855
23	0xbe5d7b41	-0.21629049
24	0xbe40626b	-0.18787543
25	0xbdff8386	-0.12476258
26	0x3d850fb3	0.06497135
27	0xbe47d735	-0.19515689
28	0xbd7939ae	-0.060846023
29	0xbe84e491	-0.25955632
30	0x3e2c14db	0.1680483
31	0x3e82c94f	0.2554421
32	0x3b2afc26	0.0026090234
33	0x3e8c0f08	0.27355218
34	0xbe1f29d8	-0.15543306
35	0x3e550e00	0.20806122
36	0xbe151979	-0.14560498
37	0xbe8d2307	-0.27565786
38	0x3e68f1ef	0.2274854
39	0xbea7346a	-0.32657176
40	0x3e1c5249	0.15265764
41	0x3e7bbd4a	0.24583927
42	0xbe0ef24a	-0.13959613
43	0xbc473180	-0.012157798
44	0xbe5f9d36	-0.21837315
45	0x3e4609c1	0.19339658
46	0xbd467306	-0.04844954
47	0x3d8f4e04	0.06997302
48	0x3dac1b6d	0.084036686
49	0x3dcfcd2d	0.10146556
50	0xbe3850bf	-0.17999552
51	0xbe661d11	-0.22472025
52	0x3e3a5591	0.18196703
53	0xbe4eb6cc	-0.20186919
54	0x3e6f36d2	0.23360756
55	0x3e5abb7d	0.21360584
56	0x3da193d5	0.07889525
57	0xbb9a3a3a	-0.004706648
58	0x3e0094f6	0.12556824
59	0x3e992863	0.29913625
60	0x3dece131	0.11566389
61	0xbdaca402	-0.084297195
62	0xbeb010f1	-0.34387925
63	0xbd832fbf	-0.06405591
64	0xbc0a24e6	-0.008431649
65	0x3e8ae87a	0.2713049
66	0x3c748300	0.014923811
67	0xbe8db662	-0.2767821
68	0x3b499804	0.0030760774
69	0xbe4a6502	-0.19765094
70	0x3d5be370	0.0536837
71	0x3eafaee9	0.34313133
72	0x3e63fb1d	0.22263761
73	0xbe4d95c7	-0.20076667
74	0xbe225f82	-0.15856746
75	0xbdb7fe33	-0.089840315
76	0x3e367124	0.17816597
77	0xbda6ee3d	-0.08150909
78	0xbe839881	-0.2570229
79	0x3dc58ea9	0.09646351
80	0x3df7d6c8	0.12101513
81	0xbeb3cc01	-0.3511658
82	0xbe1088db	-0.14114706
83	0x3e8377a9	0.2567723
84	0xbe8d0d21	-0.2754908
85	0xbd31b8fb	-0.0433893
86	0xbe823a61	-0.25435165
87	0x3ece884b	0.40338358
88	0x3ec8dbeb	0.39230284
89	0xbe279af3	-0.16367702
90	0x3e32084e	0.1738598
91	0xbe6cfaab	-0.23142497
92	0xbe3059a6	-0.17221698
93	0x3e95ca48	0.2925589
94	0xbeb05ce3	-0.34445867
95	0xbe3ac527	-0.1823927
96	0x3e4b97d2	0.19882134
97	0xbe80a4c4	-0.25125706
98	0xbe56f7e1	-0.20992996
99	0x3e8f56d6	0.27995938
100	0xbe9218c6	-0.28534526
101	0x3eba78ce	0.36420292
102	0x3d6979d5	0.057000954
103	0xbe7dd457	-0.24788032
104	0xbe7eb73e	-0.24874589
105	0x3e67774b	0.226041
106	0x3d2d1c3c	0.042263255
107	0x3e63df54	0.22253162
108	0xbd1f3ccd	-0.038876344
109	0xbe96af09	-0.29430416
110	0xbe3788ab	-0.17923228
111	0xbdb359b2	-0.087573424
112	0xbe7c80f3	-0.24658565
113	0xbe7220bf	-0.23645304
114	0xbe8166b5	-0.25273672
115	0xbe52c564	-0.20583111
116	0x3e79d5b9	0.24397935
117	0x3debb1d6	0.11508529
118	0xbe846fcd	-0.25866547
119	0x3c1349a6	0.008989727
120	0x3e42abf0	0.19010901
121	0x3e64bba3	0.22337203
122	0x3d8d36ae	0.06895195
123	0xbe827f83	-0.2548791
124	0x3e857236	0.260637
125	0x3ec9cb71	0.39413026
126	0x3de9129e	0.11380504
127	0xbe315323	-0.1731687
128	0xbcc53296	-0.024071973
129	0xbd817432	-0.063209906
130	0xbe834002	-0.25634772
131	0x3c42e5f2	0.011895644
132	0x3dbc5871	0.09196556
133	0xbdc60075	-0.09668056
134	0x3e5a83bf	0.2133932
135	0x3d9d792f	0.076891296
136	0x3e27d36a	0.16389242
137	0x3e7a5282	0.24445537
138	0xbe165174	-0.1467951
139	0xbe7bf6b6	-0.24605832
140	0xbe053d24	-0.13011605
141	0x3e5221da	0.20520726
142	0xbebddb5c	-0.3708142
143	0xbea8de65	-0.32982174
144	0x3d57216f	0.05252212
145	0xbd0ac641	-0.033880476
146	0x3db6aed9	0.08920068
147	0xbdd67096	-0.10470693
148	0xbedfcee1	-0.43712524
149	0x3e4bd385	0.19904907
150	0x3da4ebb4	0.08052769
151	0xbe49a937	-0.19693457
152	0xbc80632e	-0.015672293
153	0x3cd5f496	0.026117604
154	0x3dde19ea	0.108447865
155	0x3e69a3bf	0.2281637
156	0xbcb7c640	-0.0224334
157	0xbd3e0547	-0.04639175
158	0xbd1ece5a	-0.03877101
159	0xbe197c13	-0.14988737
160	0x3c5408c0	0.012941539
161	0x3e54a0ec	0.20764512
162	0xbd7af657	-0.061270084
163	0x3e7f79e4	0.24948841
164	0x3e340ed0	0.17583776
165	0xbe7d0169	-0.24707569
166	0x3c98016d	0.018555367
167	0x3df9c344	0.12195447
168	0xbd4186ea	-0.047247805
169	0xbdfef34f	-0.12448751
170	0xbca956a8	-0.020671204
171	0x3e06c526	0.13161144
172	0xbe361e47	-0.17784987
173	0x3e75ae5a	0.23992291
174	0x3d35e59b	0.044408422
175	0xbd08b8a3	-0.03337921
176	0x3ade1288	0.0016942779
177	0x3bc3cc43	0.0059752776
178	0xbdcd97dc	-0.100387305
179	0x3e4e594f	0.20151256
180	0xbc56f637	-0.013120226
181	0x3d21b558	0.039479584
182	0x3d048351	0.032351796
183	0x3daf3fa3	0.085570596
184	0x3da420f3	0.08014097
185	0xbe0f2286	-0.13978013
186	0xbe9ad0e7	-0.30237505
187	0xbe8a40d1	-0.27002576
188	0xbe422f71	-0.1896341
189	0x3dee22b1	0.116277106
190	0xbe8ab3ba	-0.27090245
191	0xbe06cc09	-0.1316377
192	0xbd421e9e	-0.04739248
193	0x3e645ccd	0.22301026
194	0x3e832ff7	0.25622532
195	0xbe21f307	-0.15815364
196	0xbe8c9cd3	-0.27463397
197	0xbe80ee4b	-0.25181803
198	0xbd8ad282	-0.067784324
199	0xbd56ebaa	-0.05247084
200	0x3c1aee41	0.009456218
201	0xbdae8cc8	-0.08522946
202	0xbe120958	-0.14261377
203	0xbe40fdd7	-0.18846832
204	0xbd083d62	-0.033261664
205	0xbea12bae	-0.31478637
206	0x3e8fe3c6	0.28103465
207	0x3ddc5056	0.1075751
208	0x3e424631	0.18972088
209	0x3c686ea7	0.014186538
210	0xbe44a00b	-0.19201677
211	0x3ea8db76	0.32979935
212	0x3e561697	0.20907055
213	0xbe11869f	-0.1421151
214	0x3cdeed72	0.027212832
215	0xbe7f8a81	-0.24955179
216	0x3da14823	0.07875087
217	0xbe001058	-0.12506235
218	0x3e7b74b6	0.2455624
219	0xbe2e41a8	-0.17017233
220	0x3ec5695a	0.3855694
221	0x3e57d659	0.21077861
222	0x3e6b64ba	0.22987643
223	0xbdfc8989	-0.1233092
224	0x3e44cea9	0.1921946
225	0xbe3d78dd	-0.18503137
226	0xbc109a7f	-0.008825897
227	0xbdacb96b	-0.08433803
228	0x3c03f4f9	0.0080540115
229	0xbe34bce2	-0.17650178
230	0x3e4a829e	0.19776389
231	0xbe00ba0f	-0.12570976
232	0x3dc98ff9	0.09841914
233	0x3dd76aeb	0.1051844
234	0xbe55b3f5	-0.2086943
235	0xbea3af1a	-0.3196953
236	0xbb27af22	-0.0025586565
237	0x3d60ed40	0.05491376
238	0xbdd5d5f4	-0.10441199
239	0xbe6f5601	-0.23372652
240	0xbe54dc2f	-0.20787118
241	0xbd37807e	-0.044800274
242	0x3e9fdbad	0.31222287
243	0xbe6b1c3b	-0.22959988
244	0x3dafec1d	0.08589957
245	0x3e44eaf4	0.19230253
246	0xbe8aed82	-0.2713433
247	0x3da33252	0.07968582
248	0x3e4bdfc5	0.1990958
249	0x3e678fc9	0.22613443
250	0x3e42946c	0.19001931
251	0x3e7269e2	0.23673204
252	0xbe2d4430	-0.16920543
253	0xbebd8b35	-0.3702027
254	0x3e6f80dd	0.23389001
255	0xbe5f2345	-0.21790798

output_layer.bias f4 [10]
0	0xbc601b8f	-0.0136784455
1	0x3b2ad178	0.0026064795
2	0xbc26953d	-0.010167417
3	0x3dc66d11	0.096887715
4	0xbd8c5cfa	-0.06853671
5	0x3de37b3a	0.11107488
6	0x3c114d18	0.008868478
7	0x3c65cb58	0.014025532
8	0xbb19cc9a	-0.00234679
9	0xbd6d3dc7	-0.057920244
